__deprecated__/data.pth (torch, 5809 bytes, 6 tensors)

l1.weight f4 [8, 54]
0	0x3f2100d8	0.6289191
1	0xbe2e3c8b	-0.17015283
2	0xbf03c6d5	-0.5147527
3	0x3ec6d4a5	0.3883411
4	0xbd2c2e5f	-0.04203641
5	0x3f48357f	0.7820663
6	0xbe9554e9	-0.29166344
7	0xbe3893a5	-0.18025072
8	0xbf0e394f	-0.55556196
9	0xbe8dff85	-0.27734008
10	0x3ea23be5	0.3168632
11	0xbced7372	-0.028985713
12	0xbe9ca970	-0.3059802
13	0xbea54458	-0.32278705
14	0xbe5c8114	-0.21533614
15	0xbcd6c50c	-0.026217006
16	0x3ecb347e	0.39688486
17	0x3f4f31a3	0.80935115
18	0x3e810b0a	0.25203735
19	0x3e8983f0	0.26858473
20	0x3ec28bdd	0.37997332
21	0x3eab1cc3	0.3342038
22	0x3ecce1a6	0.40015906
23	0x3efca1b9	0.49342135
24	0xbe63ca05	-0.22245033
25	0x3ee37101	0.44422153
26	0x3ec91e58	0.39280963
27	0xbeb2a75f	-0.3489332
28	0x3e51b5c6	0.20479497
29	0xbe4b73a4	-0.19868332
30	0x3f06f106	0.5271152
31	0xbea3a6fa	-0.3196333
32	0x3f17e5e5	0.59335166
33	0xbebee473	-0.37283668
34	0xbe9f2ab4	-0.31087267
35	0x3d6d57af	0.05794495
36	0xbd186383	-0.037204277
37	0xbf181de7	-0.5942063
38	0xbdeece3b	-0.11660429
39	0xbd86db62	-0.06584813
40	0x3f1f8893	0.6231777
41	0x3ed956e4	0.42449105
42	0xbcebce8c	-0.028785013
43	0xbe40ab06	-0.1881524
44	0xbedc5a00	-0.43037415
45	0xbd8d1fbc	-0.068908185
46	0x3f4c7ec6	0.7988094
47	0x3eea5fef	0.45776317
48	0x3e7d4323	0.24732642
49	0x3ebb0685	0.36528412
50	0x3cb4e1e4	0.02208037
51	0x3ea95c3b	0.3307818
52	0xbe583822	-0.21115163
53	0x3e925eee	0.2858805
54	0xbe519e48	-0.20470536
55	0x3f0e795d	0.55653936
56	0x3ee7cec0	0.45274925
57	0xbdb6532a	-0.08902581
58	0x3ecbd07d	0.398075
59	0xbe864b55	-0.2622935
60	0x3eddaf0d	0.43297616
61	0x3eeadbe9	0.45870903
62	0x3f2d3524	0.6765921
63	0x3f0aa8bf	0.54163736
64	0x3d859ebd	0.065244175
65	0xbe81c0b4	-0.25342333
66	0x3f38e635	0.7222627
67	0xba4b728e	-0.00077609054
68	0x3f179476	0.5921091
69	0xbec4edd0	-0.38462687
70	0xbda1479b	-0.07874986
71	0xbe865a3b	-0.26240715
72	0x3ecdc8bc	0.4019221
73	0xbe650069	-0.22363438
74	0xbd96e72d	-0.07368312
75	0xbe84e310	-0.25954485
76	0xbe1938d5	-0.14963086
77	0xbf1a216f	-0.60207266
78	0x3e6a29b9	0.22867478
79	0xbdd51827	-0.10404997
80	0x3eb63255	0.35585275
81	0x3f20282f	0.62561315
82	0x3ea59180	0.3233757
83	0x3edb1019	0.4278572
84	0xbe95fa21	-0.29292396
85	0xbdd8cb87	-0.10585695
86	0xbe2192e4	-0.1577869
87	0x3f1e1f89	0.6176687
88	0x3f57b31a	0.8425766
89	0xbe91308d	-0.28357354
90	0x3e79f2c9	0.24409021
91	0x3f22a512	0.6353313
92	0x3f0fd42b	0.5618312
93	0x3f270b52	0.6525165
94	0xbe3a26d1	-0.1817887
95	0x3ec0e085	0.37671295
96	0xbd826ae7	-0.06368046
97	0x3efc49a7	0.49274942
98	0x3efab123	0.4896327
99	0x3f41d5a9	0.75716645
100	0xbef3403c	-0.47509944
101	0x3c730f27	0.014835156
102	0x3e4a7988	0.19772923
103	0x3eb942e5	0.3618385
104	0xbe7804f3	-0.24220638
105	0x3e35eb6d	0.17765589
106	0x3f1c85d0	0.6114168
107	0x3e5a05d8	0.21291292
108	0x3ea2a4a6	0.31766242
109	0x3e9af901	0.302681
110	0x3ecc1f4a	0.39867622
111	0x3f05dd43	0.52290744
112	0x3eee5893	0.46551952
113	0xbf0cb262	-0.5495969
114	0x3ead913c	0.33899868
115	0x3ecbc22a	0.39796573
116	0x3f03a1cc	0.5141876
117	0x3e88d9d6	0.26728696
118	0x3f099b95	0.53753024
119	0xbeb3c2bd	-0.3510951
120	0x3f302ae8	0.6881547
121	0xbe86945d	-0.26285067
122	0x3eb90b14	0.36141264
123	0xbe77788e	-0.24167082
124	0x3ecb886c	0.3975252
125	0xbf0d6c45	-0.5524333
126	0x3ecb7d8b	0.3974422
127	0x3f2eb9df	0.68252367
128	0x3d9be7d8	0.0761258
129	0x3f249e49	0.64304024
130	0x3f02f71a	0.511583
131	0x3cbcf110	0.023064166
132	0xbe087c4b	-0.13328664
133	0x3ee0d427	0.4391186
134	0x3ef53636	0.47892922
135	0x3eadf524	0.3397609
136	0x3e235226	0.15949306
137	0xbd8c0e40	-0.068386555
138	0xbebc7097	-0.3680465
139	0xbe68a050	-0.22717404
140	0x3da49832	0.080368415
141	0x3ec71b4e	0.3888802
142	0x3f216426	0.6304344
143	0xbeaf9711	-0.34294942
144	0x3e964c02	0.29354864
145	0x3f0fb197	0.56130356
146	0x3eb45543	0.352213
147	0x3ebbcfc6	0.36681956
148	0xbe9e5e91	-0.30931523
149	0x3ef0613f	0.46949193
150	0xbe636701	-0.22207262
151	0x3f0207d5	0.507932
152	0x3e55343f	0.20820712
153	0x3f1e0330	0.61723614
154	0x3e093f14	0.13402969
155	0x3d800b9b	0.062522136
156	0x3e88c887	0.2671549
157	0x3ec2d6bf	0.38054463
158	0xbe315621	-0.17318012
159	0x3e8f469b	0.27983555
160	0x3ed3827b	0.41310486
161	0x3e753859	0.23947276
162	0xbdbc7f93	-0.0920402
163	0xbd0ec4ee	-0.034855776
164	0x3e7e8580	0.24855614
165	0x3f038944	0.51381326
166	0x3f09ec23	0.5387594
167	0xbeb334b7	-0.35001156
168	0x3e9e2c5b	0.30893216
169	0x3e93c232	0.28859097
170	0x3ebeeda8	0.37290692
171	0x3e5ee4e4	0.21767002
172	0x3edc2e95	0.4300429
173	0xbe8c5010	-0.27404833
174	0x3e3c0103	0.18359761
175	0xbe7fc095	-0.24975808
176	0xbe2fc22f	-0.17163919
177	0xbdb3be5a	-0.08776541
178	0x3ed03cd9	0.40671423
179	0xbec39056	-0.38196057
180	0xbeb9a457	-0.36258194
181	0x3f47b6de	0.7801341
182	0xbecec624	-0.40385544
183	0x3f4675fe	0.7752379
184	0x3f254708	0.6456151
185	0x3e88a95a	0.26691705
186	0x3ec6b4e0	0.38809872
187	0x3ee42d6e	0.4456591
188	0xbedffc4a	-0.4374717
189	0xbeae082e	-0.33990616
190	0xbeb7ab33	-0.35872802
191	0xbeb6ceab	-0.3570455
192	0xbe581237	-0.21100698
193	0xbeab86aa	-0.33501178
194	0x3dfa91c0	0.12234831
195	0x3edb9a46	0.4289114
196	0xbe405ac8	-0.1878463
197	0xbe761e0f	-0.24034904
198	0xbe975573	-0.2955738
199	0x3ebe16ae	0.37126678
200	0x3f031d6e	0.5121678
201	0x3f018b21	0.5060292
202	0xbeb38aa5	-0.35066715
203	0xbf0e1173	-0.55495375
204	0xbe7d023e	-0.24707887
205	0xbe51ab3a	-0.20475474
206	0x3e995411	0.2994695
207	0xbe2c20f3	-0.16809444
208	0xbf38800c	-0.72070384
209	0xbec5855b	-0.38578305
210	0x3e8a57a3	0.27019987
211	0xbecbdbf5	-0.3981625
212	0xbe24b8a9	-0.16086067
213	0xbea64e51	-0.32481626
214	0x3eadd619	0.33952406
215	0x3dd81d20	0.1055243
216	0xbe417aed	-0.18894549
217	0x3ee2d817	0.44305488
218	0xbec19d7d	-0.37815467
219	0xbd96f92e	-0.07371746
220	0xbe035506	-0.12825403
221	0x3e13effd	0.14447017
222	0xbd9aadb2	-0.07552661
223	0xbe88ad4c	-0.26694715
224	0xbdc5d145	-0.096590556
225	0xbe2c5e64	-0.16832882
226	0xbdf30c3d	-0.11867569
227	0xbe5a0344	-0.21290308
228	0x3efbd36d	0.49184743
229	0x3cd2f1ba	0.02575003
230	0x3ed3ca72	0.4136539
231	0xbe7761f0	-0.24158454
232	0xbd9d7629	-0.07688553
233	0x3e900c1a	0.28134233
234	0x3e9f8074	0.3115269
235	0xbe2951db	-0.16535132
236	0xbdaa97c4	-0.08329728
237	0xbe29267c	-0.16518587
238	0xbe290345	-0.16505153
239	0xbeab5ab0	-0.33467627
240	0xbdef60ce	-0.11688386
241	0xbe6aa8dd	-0.22915979
242	0x3f1920ee	0.5981587
243	0x3f2a67f1	0.6656485
244	0x3ead8026	0.33886832
245	0x3ef421dc	0.47682083
246	0xbd8bc85a	-0.068253234
247	0x3daecddb	0.085353576
248	0xbd0f3aad	-0.034968067
249	0xbe934b67	-0.28768465
250	0x3f20aed1	0.6276675
251	0xbd60bc6e	-0.0548672
252	0x3eca8f36	0.39562386
253	0xbc169bbc	-0.009192403
254	0xbdc454a4	-0.095864564
255	0xbd7437a4	-0.059623376

l1.bias f4 [8]
0	0x3f685f37	0.90770286
1	0x3e864bdf	0.2622976
2	0x3f1c201b	0.6098649
3	0x3f61c983	0.8819811
4	0x3e290974	0.16507512
5	0x3f11dc1a	0.56976473
6	0x3edbeea7	0.42955515
7	0x3f19c8d3	0.6007206

l2.weight f4 [8, 8]
0	0x3e9c547d	0.3053321
1	0x3e872b2f	0.26400134
2	0xbde09048	-0.109650195
3	0xbea54e7c	-0.3228644
4	0xbd085d91	-0.033292357
5	0xbeb33375	-0.35000196
6	0xbeb4de48	-0.35325837
7	0xbeb97034	-0.36218417
8	0x3fb630b9	1.4233619
9	0xbf8d0e38	-1.1019964
10	0x3f69f6a7	0.91391987
11	0x3f775365	0.96611625
12	0xbf126207	-0.5718083
13	0xbe8dfae2	-0.2773047
14	0xbf4ee4ea	-0.80818045
15	0x3fbf1c96	1.4930599
16	0x3f8e4109	1.1113597
17	0xbe07dab4	-0.13267022
18	0x3d08dc6b	0.033413332
19	0x3db1814c	0.086672395
20	0x3da05f5e	0.0783069
21	0x3f3f6460	0.74762535
22	0x3fa148d9	1.2600356
23	0xbfa5672e	-1.2922113
24	0xbf5cf2ec	-0.8630817
25	0x3fb26599	1.3937255
26	0x3f90750f	1.1285723
27	0x3e6c29fe	0.23062894
28	0x3f13acd4	0.5768559
29	0x3e388698	0.18020093
30	0x3f72ecd9	0.9489265
31	0xbcc53070	-0.024070948
32	0xbf97ffb6	-1.1874912
33	0x3c991b56	0.018689793
34	0x3e91b5db	0.28459057
35	0x3f2c9f73	0.674308
36	0xbf6ea8cb	-0.9322631
37	0x3f83261c	1.0246005
38	0x3f410702	0.7540132
39	0x3f0dea24	0.55435395
40	0xbfa57183	-1.2925266
41	0x3dc70b47	0.09718948
42	0x3e83c55e	0.25736517
43	0x3f4e95d6	0.8069738
44	0xbed9f19d	-0.4256715
45	0xbe2340d4	-0.15942699
46	0x3eb934ba	0.3617304
47	0x3e7e22ab	0.24817912
48	0xbea31900	-0.3185501
49	0x3f526879	0.8219066
50	0x3f4c263e	0.7974585
51	0x3fa6db11	1.3035604
52	0xbedf0f9a	-0.4356659
53	0x3e084445	0.13307293
54	0xbedd6683	-0.43242273
55	0xbda2a686	-0.07941918
56	0x3eff033b	0.49807152
57	0xbf5c8705	-0.86143523
58	0xbee4bada	-0.44673806
59	0x3f8aec87	1.0853432
60	0xbf3944de	-0.7237071
61	0x3f9f8826	1.2463424
62	0x3f149951	0.5804644
63	0xbed589bd	-0.41706648

l2.bias f4 [8]
0	0xbe0ec536	-0.13942418
1	0x3f3ad807	0.7298588
2	0x3eddaae9	0.43294457
3	0xbd5f7ba9	-0.05456129
4	0x3e101b08	0.14072812
5	0xbe881f60	-0.26586437
6	0x3e0a0e82	0.13482097
7	0x3efd729c	0.49501503

l3.weight f4 [7, 8]
0	0xbe3f72d4	-0.18696147
1	0xbf84d249	-1.0376674
2	0x3e263ad4	0.16233379
3	0xbe031472	-0.12800768
4	0x3f50888c	0.81458354
5	0xbf4d628e	-0.8022851
6	0xbf9000fd	-1.1250302
7	0x3ebc7886	0.36810702
8	0xbe9cbe42	-0.30613905
9	0xbf5dd2e4	-0.8664992
10	0xbfa16f7b	-1.2612146
11	0x3f260c12	0.6486217
12	0xbf6b7e78	-0.9198985
13	0xbfafbcd5	-1.3729502
14	0x3effc5b1	0.49955514
15	0xbe8b98fb	-0.27265152
16	0xbe4149c8	-0.18875802
17	0xbe8bbd62	-0.27292925
18	0x3f62f4fe	0.8865508
19	0xbf60cbed	-0.87811166
20	0xbfb9f02f	-1.4526423
21	0xbf989cbc	-1.1922832
22	0xbf84de59	-1.0380355
23	0x3f4e7771	0.80651003
24	0x3de7775d	0.113020636
25	0x3ead455e	0.33841985
26	0xbf217922	-0.6307546
27	0xbf3855cb	-0.7200591
28	0xbe96f401	-0.29483035
29	0xbf520043	-0.8203165
30	0x3f7f2e66	0.99680173
31	0x3f11ef6d	0.5700596
32	0x3d958d3c	0.07302329
33	0xbf7ceae6	-0.98795927
34	0x3f52a1c1	0.82278067
35	0x3ea16eae	0.31529754
36	0xbf00e28a	-0.5034567
37	0xbf487645	-0.78305465
38	0xbf5b91b6	-0.8576921
39	0xbf55dfb7	-0.83544487
40	0x3da5fc5f	0.081047766
41	0xbeee8b34	-0.4659058
42	0xbf159e27	-0.58444446
43	0xbdbb3600	-0.09141159
44	0x3ef0adcd	0.470076
45	0x3f75c414	0.96002316
46	0x3e98fc12	0.29879814
47	0xbe021ecf	-0.12707065
48	0x3d3f399d	0.046685804
49	0x3f8ab538	1.0836554
50	0xbf89a9d5	-1.0754954
51	0xbf5a5b08	-0.8529515
52	0xbfa825d2	-1.3136542
53	0xbf44bc89	-0.7685018
54	0xbfbaef52	-1.4604285
55	0xbf3ba38c	-0.7329643

l3.bias f4 [7]
0	0xbedc8298	-0.43068385
1	0x3eb6f080	0.35730362
2	0x3e9884a0	0.29788685
3	0xbeb57f8c	-0.35448873
4	0xbe4a3c9b	-0.19749682
5	0xbefeef3c	-0.49791896
6	0x3e9d6a34	0.3074509
